weights.pt (torch_old, 510831 bytes, 12 tensors)

conv1.weight f4 [8, 3, 3, 3]
0	0xbe0ad927	-0.135594
1	0xbd1f4855	-0.03888734
2	0x3e2142cd	0.15748139
3	0x3d92f449	0.071755
4	0xbea1daa6	-0.31612128
5	0x3d79dc47	0.06100109
6	0xbe8462c7	-0.2585661
7	0xbdddf8b8	-0.10838455
8	0x3d093a40	0.033502817
9	0x39dc471a	0.00042014645
10	0x3da2856d	0.07935605
11	0x3ddc4f1f	0.10757279
12	0x3e45403f	0.19262789
13	0xbdbcdac6	-0.09221415
14	0x3e875529	0.2643216
15	0x3a64dd0c	0.00087304483
16	0xbdace780	-0.084425926
17	0xbd0c3e20	-0.034238935
18	0x3e009931	0.12558438
19	0x3a95fcf3	0.0011443183
20	0xbdee3d6f	-0.11632811
21	0x3e5dfded	0.21678896
22	0xbe126de2	-0.1429973
23	0xbe2bd03d	-0.16778655
24	0x3e0b192f	0.13583826
25	0xbe59a57d	-0.21254535
26	0x3d70b2b2	0.058764167
27	0xbe3e8498	-0.18605268
28	0x3d143a98	0.03618869
29	0xbd99522a	-0.07486375
30	0xbd336ab7	-0.043802943
31	0x3d27b82d	0.040947128
32	0xbca1cd10	-0.019751102
33	0xbd851e93	-0.06499972
34	0xbcb323fc	-0.021867745
35	0x3d312c8a	0.043255366
36	0x3e2f810e	0.17139074
37	0xbe0c9249	-0.13727678
38	0x3e501939	0.20322122
39	0x3dbf36c7	0.0933662
40	0xbc8f1f3b	-0.017470947
41	0x3ddf422f	0.109012954
42	0x3e3f3348	0.18671906
43	0x3e9c41d5	0.30518976
44	0x3e79a154	0.24377948
45	0xbe15e7df	-0.14639233
46	0x3d83b068	0.06430131
47	0xbd6b67cb	-0.05747203
48	0xbe74a6eb	-0.23891799
49	0x3d3f938a	0.046771564
50	0x3e33859b	0.17531435
51	0xbe39a9c5	-0.18131168
52	0xbd287c6f	-0.041134294
53	0x3e250a54	0.16117221
54	0x3e19ec6b	0.15031593
55	0xbe1dcb78	-0.15409648
56	0x3e0e04b4	0.13868982
57	0xbe02bd72	-0.1276758
58	0xbdd38f46	-0.103300616
59	0x3bd1efc2	0.006406755
60	0xbc95be19	-0.018279122
61	0x3e284e86	0.16436204
62	0x3e03e240	0.12879276
63	0xbe561654	-0.20906955
64	0xbcebcffa	-0.028785694
65	0xbe862de9	-0.26206902
66	0x3de374af	0.1110624
67	0xbc03e714	-0.008050699
68	0xbde084c5	-0.10962824
69	0xbdd0e8d0	-0.102006555
70	0xbe1655da	-0.14681187
71	0xbe4ad047	-0.19806014
72	0x3e6ba415	0.23011811
73	0x3bbf9084	0.005846085
74	0xbc2d83de	-0.010590522
75	0x3e757aa0	0.23972559
76	0x3e568e02	0.20952609
77	0xbdf51603	-0.11967089
78	0x3e29753c	0.16548628
79	0x3e49c410	0.19703698
80	0x3e2f04bb	0.17091648
81	0x3e976b14	0.29573882
82	0x3de2a9c9	0.1106754
83	0x3ddebb72	0.10875596
84	0x3e5f1c00	0.21788025
85	0x3e11ec12	0.1425021
86	0x3e87930e	0.2647938
87	0x3e4956bc	0.19661993
88	0x3c921eea	0.017837007
89	0x3e479603	0.19490819
90	0xbe23bd52	-0.15990189
91	0x3c8956f7	0.0167651
92	0x3c462693	0.012094158
93	0xbe4d950c	-0.20076388
94	0xbe3f5d04	-0.18687826
95	0xbdb7827c	-0.08960435
96	0xbd730901	-0.05933476
97	0x3cfef3d0	0.031122118
98	0xbd65fd9d	-0.056150068
99	0xbe7086ea	-0.23488966
100	0xbdd87dfa	-0.10570903
101	0xbd8b3f0c	-0.067991346
102	0xbd80078d	-0.0625144
103	0x3da07d63	0.078364156
104	0xbd3a641d	-0.04550563
105	0xbe2acef5	-0.1668051
106	0xbdba5cfe	-0.09099768
107	0x3c30bfeb	0.010787944
108	0x3d12d9a9	0.03585211
109	0x3de75be7	0.11296826
110	0x3d8c2de2	0.06844689
111	0x3e564e47	0.20928298
112	0x3cac137c	0.021005385
113	0xbe68aea5	-0.22722872
114	0x3e6aaa8d	0.22916622
115	0xbe5bac86	-0.21452531
116	0xbdd914d8	-0.10599679
117	0xbce62f19	-0.02809863
118	0xbdeb0ccc	-0.1147705
119	0xbdcf76e0	-0.101300955
120	0x3de3942e	0.111122474
121	0x3e1156bd	0.14193244
122	0x3d4b1eb3	0.049589824
123	0x3e1ba7c1	0.15200712
124	0xbe64428e	-0.22291014
125	0xbe54c614	-0.20778686
126	0x3db1af29	0.08675987
127	0x3c828a8a	0.015935201
128	0x3d802a77	0.062580995
129	0x3d84257e	0.064524636
130	0x3c76cfb5	0.01506417
131	0x3cecafb2	0.028892372
132	0x3db6de5f	0.08929133
133	0xbe2ad550	-0.16682935
134	0xbe87a537	-0.26493236
135	0xbd35fb9e	-0.044429414
136	0xbe6e58a5	-0.23276003
137	0xbbbe4526	-0.005806583
138	0xbd852917	-0.06501978
139	0xbd878ff3	-0.06619253
140	0x3dac8342	0.08423473
141	0xbe8a3014	-0.26989806
142	0xbe6299e9	-0.22129025
143	0xbcad2855	-0.021137396
144	0xbe27a929	-0.16373123
145	0x3e3002d6	0.17188582
146	0xbd02538b	-0.031817954
147	0xbe43fc78	-0.19139278
148	0xbdf7db9c	-0.12102434
149	0xbe388254	-0.18018466
150	0x3d492b6e	0.049113683
151	0x3de4d0b9	0.11172623
152	0xbda42352	-0.08014549
153	0x3e70d67a	0.23519316
154	0x3dd01b2d	0.10161433
155	0x3d8dd2b3	0.06924953
156	0x3e4ffc1a	0.20311013
157	0x3dc8f342	0.09812023
158	0x3e7b23b0	0.24525332
159	0x3e7fd6ba	0.24984255
160	0x3e416afe	0.1888847
161	0x3dddcdda	0.10830279
162	0xbe16ce2e	-0.14727089
163	0xbe429efc	-0.1900596
164	0x3dd4d3d5	0.10391966
165	0xbe629b1c	-0.22129482
166	0xbc2a94dd	-0.010411468
167	0xbe0544fb	-0.13014595
168	0x3907e2f3	0.00012959148
169	0xbde019cf	-0.109424226
170	0x3e021695	0.12703927
171	0xbe8753b4	-0.26431048
172	0x3dc377d6	0.09544341
173	0x3db39035	0.0876774
174	0xbd3d5024	-0.046219006
175	0xbe0ae516	-0.13563952
176	0x3da9504b	0.08267268
177	0xbe098614	-0.13430053
178	0x3d0b2613	0.033971857
179	0x3e157882	0.14596751
180	0x3dcad6a5	0.099042214
181	0x3d488734	0.048957065
182	0xbda22f02	-0.07919122
183	0xbe61f162	-0.22064736
184	0xbe1a6e50	-0.15081143
185	0x3e18cb87	0.1492139
186	0x3df166f3	0.11787214
187	0xbdd6cbf8	-0.10488123
188	0x3d06ec80	0.032940388
189	0xbe486d69	-0.19572987
190	0xbe72ffc3	-0.23730378
191	0x3e471d03	0.19444661
192	0x3d931222	0.07181193
193	0x3dc6f5e9	0.097148724
194	0x3df7072d	0.120619155
195	0x3e011175	0.12604316
196	0x3e8944c0	0.26810265
197	0x3d8590b2	0.06521739
198	0xbe3f22c7	-0.1866561
199	0xbecb8077	-0.39746448
200	0xbe33ed20	-0.17570925
201	0xbe716832	-0.23574904
202	0xbdb280a6	-0.08715944
203	0x3de16786	0.11006074
204	0xbce0f587	-0.027460827
205	0x3df69472	0.120400324
206	0xbce431a0	-0.027855694
207	0x3e1908f2	0.14944819
208	0xbe3e1963	-0.18564372
209	0xbdd2bba1	-0.102896936
210	0xbd981ad9	-0.07426996
211	0x3dce543d	0.10074661
212	0x3e2e84f1	0.170429
213	0x3cdcf9d5	0.026974598
214	0xbd270b03	-0.040781986
215	0x3c126b73	0.008936751

conv1.bias f4 [8]
0	0x3e3140f3	0.17309932
1	0xbe941e9f	-0.28929612
2	0xbeb2d76d	-0.34929982
3	0xbe4d48fb	-0.20047371
4	0x3cccf17f	0.025017498
5	0xbe949270	-0.29017973
6	0x3ec2cc06	0.38046283
7	0xbd918566	-0.07105522

conv2.weight f4 [16, 8, 3, 3]
0	0x3e1a9ad5	0.15098126
1	0x3d884491	0.06653703
2	0x3ab0a2c5	0.0013476243
3	0x3e521d8b	0.20519082
4	0x3deff8e1	0.11717392
5	0x3deb43b2	0.11487521
6	0x3dbc25a8	0.0918687
7	0x3d333c46	0.043758653
8	0xbdd0efe5	-0.10202006
9	0xbc91c3df	-0.017793594
10	0xbc12d08e	-0.008960856
11	0x3b45b8cc	0.0030169962
12	0xbe242bba	-0.16032305
13	0xbd815552	-0.06315102
14	0x3e61590b	0.22006623
15	0x3b876a69	0.004132558
16	0x3d6bd564	0.057576552
17	0x3e50820b	0.20362107
18	0xbe492f1f	-0.19646882
19	0xbe57c417	-0.21070896
20	0xbe048a31	-0.12943341
21	0xbe650282	-0.22364238
22	0xbe356dab	-0.17717616
23	0xbced1826	-0.028942179
24	0x3e24feb9	0.16112794
25	0xbe6b39ed	-0.22971316
26	0xbe61ea32	-0.22061995
27	0xbe272dd4	-0.16326076
28	0x3dc0c514	0.0941259
29	0x3ddd10ee	0.10794245
30	0xbdcba6cf	-0.099439256
31	0xbe356e1e	-0.17717788
32	0x3d8d3874	0.06895533
33	0xbd9c41cd	-0.07629738
34	0x3cc6cd8e	0.024267938
35	0x3e826a2a	0.25471622
36	0x3e0d5f0e	0.13805792
37	0x3e631ac8	0.22178185
38	0xbd35c953	-0.04438145
39	0x3df8cdcc	0.12148628
40	0xbd19bc3d	-0.037533034
41	0xbc20db8a	-0.009817967
42	0x3e050b4e	0.12992594
43	0xbd50f605	-0.051015873
44	0xbdec5ae8	-0.115407765
45	0x3d99cac4	0.075093776
46	0x3eabf964	0.33588707
47	0x3eeae885	0.45880523
48	0xbb85641c	-0.004070772
49	0x3ec2a28d	0.3801464
50	0x3eced26b	0.4039491
51	0xbe059320	-0.13044405
52	0x3d4e08f4	0.050301507
53	0x3e923705	0.28557602
54	0xbdd5a88a	-0.10432537
55	0xbdb5bf45	-0.088743724
56	0xbe7361c1	-0.23767759
57	0xbd9e01bc	-0.077151746
58	0xbd3306df	-0.043707725
59	0x3dcc2c9b	0.09969445
60	0xbe9d85b2	-0.30766064
61	0xbd8955ab	-0.06705793
62	0x3cc0513d	0.023476237
63	0x3d95bfb6	0.073119566
64	0x3d5c8f05	0.05384733
65	0x3e6ee898	0.23330915
66	0xbd72e0a8	-0.05929628
67	0x3d4d73d0	0.050159276
68	0xbe178344	-0.14796168
69	0xbd5bcbb1	-0.053661052
70	0x3da1bebd	0.078977086
71	0x3ddeae92	0.108731404
72	0x3e3b3535	0.18282016
73	0xbbb8c7fc	-0.0056390744
74	0x3d93315b	0.07187148
75	0x3e0ac62c	0.13552159
76	0xbcc0a0f9	-0.023514258
77	0xbccee91f	-0.025257645
78	0x3cd99c05	0.026563654
79	0xbd169ae0	-0.036768794
80	0xbda6c4cb	-0.08143004
81	0x3d887a0e	0.06663905
82	0xbe1f82a0	-0.15577173
83	0xbd15a3a1	-0.036533
84	0xbd50c45f	-0.050968524
85	0xbe9e41ea	-0.30909663
86	0xbe23076e	-0.15920803
87	0xbd2eb644	-0.04265429
88	0xbe8b3849	-0.2719138
89	0xbd0a52a8	-0.033770233
90	0xbe6b27e5	-0.22964437
91	0xbe3d3bf4	-0.18479902
92	0xbdde64b4	-0.10859051
93	0xbe0a2ec6	-0.13494405
94	0xbe868e2a	-0.26280338
95	0xbe469ad5	-0.19395001
96	0x3e58e735	0.21181948
97	0xbe2acca9	-0.16679634
98	0xbea0e077	-0.31421253
99	0x3d92c062	0.071656
100	0xbe1f196e	-0.15537044
101	0x3da94f88	0.082671225
102	0x3ac1a22e	0.0014773065
103	0x3d7b806b	0.061401766
104	0xbdbcbc05	-0.092155494
105	0xbc8d8549	-0.01727547
106	0xbd73ac00	-0.059490204
107	0x3d94ebba	0.07271524
108	0x3e853f57	0.26024887
109	0x3d44cb61	0.04804552
110	0xbdf86635	-0.121288694
111	0xbad2e941	-0.0016091244
112	0xbd2d467b	-0.042303544
113	0xbbebe255	-0.0071986117
114	0xbd26ab90	-0.04069096
115	0x3d7cf965	0.06176128
116	0xbddf5c0f	-0.10906231
117	0x3e8a8c6b	0.27060255
118	0x3dd75629	0.105144806
119	0x3e023cf9	0.12718572
120	0x3e22c8cc	0.1589691
121	0x3c0e7650	0.0086952
122	0xbd1708f9	-0.03687379
123	0x3e4c4fd2	0.19952324
124	0x3d92375a	0.07139464
125	0xbd3c6391	-0.04599339
126	0xbe193ccb	-0.14964597
127	0xbd69249a	-0.05691967
128	0xbcf05436	-0.02933703
129	0xbceeeb05	-0.0291648
130	0xbcc6f811	-0.02428821
131	0xbbad1eb5	-0.0052832016
132	0xbdb16e85	-0.08663658
133	0xbdab8eec	-0.083768696
134	0xbd9152ce	-0.07095872
135	0x3c789dce	0.015174342
136	0x3de0cf9b	0.109770976
137	0xbde11192	-0.109896794
138	0xbc6a77d9	-0.0143108005
139	0xbe6a6279	-0.22889127
140	0xbdab277e	-0.08357142
141	0xbee3a1e2	-0.44459444
142	0xbdccd893	-0.10002246
143	0x3e06c9a9	0.13162865
144	0x3e14781a	0.1449894
145	0xbdd7855f	-0.105234854
146	0x3c8487e4	0.016178079
147	0x3c591b2d	0.013251108
148	0xbe0877f5	-0.1332701
149	0xbd32f6b6	-0.043692313
150	0x3de5d6df	0.11222624
151	0xbe88fbee	-0.26754707
152	0xbdc351cd	-0.09537087
153	0xbe1fc548	-0.156026
154	0xbeeaa6dd	-0.45830432
155	0xbf005488	-0.50128984
156	0xbe1be584	-0.15224272
157	0x3d681710	0.05666262
158	0xbeb19de6	-0.3469078
159	0x3da9f172	0.08298005
160	0x3b15f910	0.0022884049
161	0xbe40288c	-0.18765467
162	0xbdb49788	-0.08817965
163	0xbe450175	-0.19238837
164	0xbe1618d2	-0.14657906
165	0x3d32448c	0.043522403
166	0xbcba7bf2	-0.02276418
167	0xbd942cc0	-0.07235098
168	0x3eb22223	0.3479167
169	0xbdb75e01	-0.08953477
170	0x3bec9cce	0.007220841
171	0xbd1c6ae5	-0.03818788
172	0xbd9696d5	-0.07352988
173	0x3d3bf605	0.04588892
174	0x3decb6f2	0.115583315
175	0x3cf2acde	0.029623445
176	0xbc92f5dd	-0.017939502
177	0x3d0005f0	0.031255662
178	0xbce8bca7	-0.028410269
179	0x3da1cbb2	0.0790018
180	0x3db85a28	0.09001571
181	0xbcdfb12f	-0.027306167
182	0xbe0e11b8	-0.13873947
183	0x3e059bf0	0.13047767
184	0xbe1144e9	-0.14186443
185	0xbe13f6a2	-0.14449552
186	0x3df491a6	0.11941843
187	0xbc9e4f0a	-0.019324798
188	0xbc8e261f	-0.017352162
189	0x3aadc779	0.00132583
190	0x3e77d6fb	0.24203102
191	0x3e23bea5	0.15990694
192	0x3d68f8c5	0.05687787
193	0x3d872c4b	0.06600245
194	0x3e81b975	0.25336805
195	0xbd87cc51	-0.06630767
196	0x3e8c348f	0.2738385
197	0x3d596277	0.05307242
198	0xbe040fd5	-0.12896664
199	0xbe0fc308	-0.14039242
200	0xbe3bdd9a	-0.18346253
201	0x3e0aa3c2	0.13539031
202	0xbd1d8f52	-0.03846676
203	0xbdff3ab6	-0.1246237
204	0x3e3e42b9	0.1858014
205	0xbd38f6cf	-0.04515725
206	0xbe6e05b0	-0.23244357
207	0x3c9fbcee	0.019499268
208	0xbc75384b	-0.014967035
209	0xbdd2946e	-0.10282217
210	0xbe90d323	-0.28286085
211	0xbe1ea504	-0.15492636
212	0xbe598594	-0.21242362
213	0xbe223ad8	-0.1584276
214	0xbea3eb16	-0.32015294
215	0xbe53c5f0	-0.20680976
216	0x3d4072c3	0.046984445
217	0x3da59ccd	0.08086548
218	0x3e0be658	0.13662088
219	0x3e74eb69	0.23917927
220	0x3dc574e2	0.09641434
221	0xbe5ae1b8	-0.21375167
222	0x3e6facc0	0.23405743
223	0xbe631cdb	-0.22178976
224	0xbcb49904	-0.02204562
225	0x3d6700f5	0.056397397
226	0xbec9562f	-0.39323565
227	0xbea0684e	-0.31329578
228	0xbb45ba94	-0.0030171024
229	0xbdba1f75	-0.09088031
230	0xbec684b7	-0.38773128
231	0xbdd01974	-0.10161105
232	0xbeb03568	-0.34415746
233	0xbeedab7b	-0.46419892
234	0xbddfc8cd	-0.109269716
235	0xbd9b8e95	-0.07595555
236	0xbd0ac518	-0.03387937
237	0x3d881938	0.06645435
238	0xbdfced2f	-0.12349927
239	0x3d02c4dd	0.031926025
240	0x3e5e28b7	0.21695219
241	0xbd39953a	-0.04530833
242	0xbd0f54ef	-0.03499311
243	0xbb3616aa	-0.0027784505
244	0xbd2a83af	-0.04162949
245	0xbc304529	-0.010758677
246	0x3d0fa21c	0.03506671
247	0x3d2a8ef0	0.041640222
248	0xbcaf671d	-0.021411473
249	0xbae4b26f	-0.0017448197
250	0xbd8e80f3	-0.06958189
251	0x3dcf9aa2	0.10136916
252	0x3dd4954e	0.1038004
253	0x3e242728	0.16030562
254	0x3dfff727	0.124983124
255	0x3e5532c5	0.20820148

conv2.bias f4 [16]
0	0xbdb1dac8	-0.08684307
1	0x3e286c2b	0.16447513
2	0x3e00097b	0.12503617
3	0xbbb7e63e	-0.005612164
4	0xbcc3dc36	-0.023908716
5	0xbdb33ccc	-0.087518305
6	0xbd4988f4	-0.049202874
7	0xbdfe0a24	-0.12404278
8	0xbe651b48	-0.22373688
9	0x3d92f5bd	0.07175777
10	0x3d1a9ecd	0.0377491
11	0xbe118d14	-0.14213973
12	0x3d989ae5	0.07451419
13	0xbd7df28b	-0.061998885
14	0xb9caebbf	-0.00038704087
15	0xbd007780	-0.031363964

conv3.weight f4 [32, 16, 3, 3]
0	0xbcf2949c	-0.029611878
1	0xbd474abc	-0.048655257
2	0xbb4ee749	-0.0031570962
3	0xbd66bdd3	-0.056333374
4	0x3c7e4a40	0.015520632
5	0xbdc3a731	-0.095533736
6	0xbd3d5868	-0.04622689
7	0x3d1efca7	0.038815167
8	0xbd138027	-0.036010887
9	0xbd985543	-0.074381374
10	0xbcd93250	-0.026513249
11	0xbb0a5b5b	-0.002111158
12	0xbda424b7	-0.08014815
13	0xbd8d092f	-0.06886517
14	0x3d0b0458	0.03393969
15	0xbd67b305	-0.05656721
16	0x3d21c0a8	0.039490372
17	0xbd6d0da3	-0.057874333
18	0x3d51887b	0.05115555
19	0xbd91603d	-0.07098434
20	0x3cf85c62	0.030317489
21	0xbd77c693	-0.06049211
22	0xbda8ff73	-0.08251848
23	0x3d5002ed	0.05078404
24	0xbd78aacf	-0.06070977
25	0x3c1b3512	0.009473102
26	0xbd8a25ad	-0.06745467
27	0x3d558d6f	0.052136835
28	0xbd2e198a	-0.042504825
29	0x3c736044	0.0148544945
30	0x3d5f7e61	0.054563884
31	0xbd895818	-0.06706256
32	0xbdc419a1	-0.09575201
33	0x3c4ef648	0.01263196
34	0xbdc0ea51	-0.09419692
35	0x3cebc83b	0.028782
36	0x3c8974d3	0.016779339
37	0xbddb0e75	-0.10696117
38	0x3bc9ea27	0.0061619463
39	0xbd359b1a	-0.04433737
40	0xbd100b8e	-0.03516727
41	0x3c30df5f	0.010795443
42	0xbd89007f	-0.06689548
43	0x3ccb9b88	0.024854437
44	0xbda5dc0d	-0.08098612
45	0x3bb48c2d	0.0055098743
46	0x3cc9b512	0.024622474
47	0xbdc4996c	-0.095995754
48	0xbdd1dbda	-0.102470115
49	0xbd1f468d	-0.03888564
50	0xbd104ef1	-0.035231534
51	0x3cc0c935	0.023533443
52	0xbdbac574	-0.091196924
53	0xbd7cfc4a	-0.06176404
54	0x3d088006	0.033325218
55	0xbd57b99c	-0.052667245
56	0x3be8bd74	0.0071026627
57	0xbd27f06d	-0.041000772
58	0x3d1d61f9	0.038423512
59	0xbd8d32c0	-0.068944454
60	0x3d193643	0.037405264
61	0x3b270293	0.0025483712
62	0xbdcbe815	-0.099563755
63	0x3d78e302	0.060763367
64	0x3d9efa91	0.077626355
65	0x3d489789	0.04897264
66	0x3d8c1e6a	0.068417385
67	0xbd7071ec	-0.058702394
68	0xbd99db0e	-0.075124845
69	0x3d87c241	0.06628848
70	0x3c80bca7	0.015714956
71	0x3cbabf74	0.02279637
72	0xbd193972	-0.0374083
73	0x3d119473	0.035541963
74	0xbc8b5bd6	-0.017011564
75	0xbd830061	-0.06396557
76	0xbd955dc7	-0.07293277
77	0xbd4dc011	-0.050231997
78	0xbdb734af	-0.089455955
79	0x3ce48cec	0.027899228
80	0xbd20d5bf	-0.039266344
81	0x3cd6bcd6	0.02621309
82	0xbd55b984	-0.052178875
83	0x3ca28fc9	0.019843953
84	0xbdd31e75	-0.103085436
85	0xbcb5ebab	-0.022207102
86	0xbdb934ae	-0.09043251
87	0xbca76b31	-0.020436855
88	0x3d6d28e5	0.05790033
89	0xbd4dfe97	-0.050291624
90	0xbdd3db3b	-0.10344549
91	0x3d2d9caf	0.042385753
92	0x3d320ccf	0.043469246
93	0xbd8fcc24	-0.070213586
94	0xbd9e5783	-0.07731535
95	0xbdf316d7	-0.11869591
96	0x3d3fb560	0.046803832
97	0xbc6a3d5c	-0.014296856
98	0x38e2ebe6	0.00010820459
99	0x3c68c3a5	0.014206802
100	0xbd66f073	-0.056381654
101	0xbd61d07e	-0.055130474
102	0xbbc0c9a6	-0.0058834134
103	0xbc72b3e3	-0.014813396
104	0xbd9fd176	-0.078036234
105	0x3d07f0a5	0.03318848
106	0xbda3678e	-0.07978736
107	0x3d864f4b	0.06558093
108	0xbd4442b8	-0.04791519
109	0x3ce8dbda	0.028425146
110	0x3c7ef102	0.01556039
111	0xbd035ac5	-0.032068986
112	0xbd205dad	-0.039151836
113	0x3d3e5fff	0.046478268
114	0xbbc4e9e2	-0.0060093263
115	0xbdb69da8	-0.08916789
116	0x3c3deae4	0.011591647
117	0xbb721824	-0.0036940658
118	0xbd16655f	-0.03671777
119	0xbc1c6baf	-0.009547158
120	0xbdc0ce50	-0.09414351
121	0xbd99889d	-0.0749676
122	0xbdc3ec22	-0.09566523
123	0xbde450cb	-0.111482225
124	0x3cad7e77	0.021178467
125	0x3cf016db	0.029307773
126	0xbd96bf6b	-0.07360729
127	0xbd96fb27	-0.07372122
128	0x3d341b5b	0.0439714
129	0xbb4d6d4c	-0.0031345664
130	0xbd91ed7e	-0.07125376
131	0xbb80418d	-0.0039140643
132	0xbd1df4de	-0.0385636
133	0x3b900202	0.0043947706
134	0xbd941393	-0.07230296
135	0xbd6f697c	-0.058450207
136	0xbd25a6a9	-0.040442143
137	0xbd9278e7	-0.071519665
138	0xbc3f2c39	-0.011668258
139	0xbcd17f52	-0.025573406
140	0xbd582348	-0.05276802
141	0x3c033c7b	0.008010025
142	0xbd23532d	-0.039874244
143	0xbd9d91dc	-0.07693836
144	0x3ce66ec9	0.028128998
145	0xbc8ea98d	-0.017414832
146	0xbdaf94f2	-0.08573331
147	0xbcb13d86	-0.021635782
148	0xbdcf82e1	-0.10132385
149	0x3c906460	0.017625988
150	0xbe2c8f3c	-0.16851515
151	0xbbe351d8	-0.006937247
152	0xbe99d948	-0.30048585
153	0x3dc8d6c7	0.098065905
154	0xbcecf068	-0.028923228
155	0x3cd1fc8c	0.025633119
156	0x3ce7533b	0.02823793
157	0xbdd02c39	-0.10164685
158	0x3b4c4977	0.0031171718
159	0x3cd6b214	0.026207961
160	0x3e018abf	0.12650584
161	0xbd3d19fd	-0.046167362
162	0x3e01d463	0.12678675
163	0x3e5a07ae	0.21291992
164	0x3db1fc7a	0.08690734
165	0x3e14fd92	0.14549854
166	0x3dba5410	0.09098065
167	0x3e45daf2	0.19321802
168	0x3d0f827b	0.035036545
169	0x3e3c5800	0.18392944
170	0x3e0de12a	0.13855425
171	0xbcf69a49	-0.030102866
172	0x3dbe58b5	0.09294263
173	0xbd38450c	-0.044987723
174	0x3d052c2f	0.03251284
175	0xba98c62f	-0.0011655743
176	0xbbf91264	-0.0076010693
177	0x3c47b580	0.012189269
178	0xbc0bc968	-0.008531906
179	0x3cb2db77	0.021833165
180	0x3e19a27e	0.15003392
181	0x3d281f87	0.04104569
182	0x3e1cbcd7	0.15306412
183	0x3dc7de23	0.09759166
184	0x3c6272e5	0.013821338
185	0x3c9f488d	0.019443775
186	0xbdb632f4	-0.08896437
187	0x3d8579d7	0.0651738
188	0x3dd7507b	0.10513397
189	0xbdc62f3e	-0.096769795
190	0xbd60039e	-0.05469095
191	0xbb664f9b	-0.0035142663
192	0xbd81d661	-0.06339718
193	0xbe160f1a	-0.14654198
194	0x3d8f833f	0.07007455
195	0xbaad4027	-0.0013217971
196	0x3e4f9c29	0.20274414
197	0x3e25625a	0.161508
198	0x3d70e5c4	0.05881287
199	0xbcbd94ad	-0.023142183
200	0x3db5abfa	0.088706926
201	0x3e03658b	0.12831704
202	0x3d80425f	0.06262659
203	0x3ddfe81e	0.10932945
204	0x3e109ad9	0.1412157
205	0xbd8294a4	-0.06376007
206	0xbd25e2e1	-0.04049957
207	0x3d13ff3b	0.03613208
208	0xba89fd55	-0.0010527769
209	0x3da90e0f	0.082546346
210	0xbc4885e1	-0.0122389505
211	0x3d4f04c0	0.05054164
212	0x3d6e655a	0.058202125
213	0x3e2535b3	0.16133766
214	0x3d769e48	0.060209543
215	0x3e2e8fc3	0.17047028
216	0xbd9998bb	-0.07499834
217	0x3c90448d	0.017610813
218	0xbe3d787e	-0.18502995
219	0x3dcb499c	0.09926149
220	0x3e2d4e4c	0.16924399
221	0x3e00cf53	0.12579088
222	0x3de065dc	0.10956928
223	0xbccca84f	-0.0249826
224	0xbd1d6a60	-0.038431525
225	0xbcf366ef	-0.029712168
226	0xbdccb732	-0.09995879
227	0x3d929b4c	0.07158527
228	0xbcd05a36	-0.02543364
229	0xbe3dff0e	-0.18554327
230	0xbdf80678	-0.12110609
231	0xbbfd45c1	-0.0077292626
232	0xbebfda78	-0.37471366
233	0xbce6bb02	-0.028165344
234	0x3de9ea70	0.114216685
235	0x3b781ca7	0.0037858875
236	0xbded5e8a	-0.115902975
237	0xbbbc1307	-0.005739573
238	0xbd85afc6	-0.06527667
239	0x3dbdb4bb	0.09262987
240	0xbcaa4ac3	-0.020787602
241	0xbcef3d6e	-0.029204097
242	0xbcbcad8a	-0.023031969
243	0xbb4465d8	-0.002996793
244	0xbe119372	-0.14216402
245	0x3ddc9540	0.10770655
246	0xbb7c6520	-0.0038512424
247	0x3d989336	0.07449953
248	0x3e805a0c	0.250687
249	0x3e33dcfc	0.17564768
250	0xbe0646f6	-0.13113007
251	0xbdb1b28e	-0.08676635
252	0x3dc44967	0.09584313
253	0x3e1f72ab	0.15571086
254	0x3d1d6911	0.038430277
255	0xbc9c4771	-0.019077035

conv3.bias f4 [32]
0	0xbcbde3b8	-0.023179874
1	0xbdf9369d	-0.1216862
2	0xbe0062f3	-0.12537746
3	0xbdcbc49e	-0.09949611
4	0xbdbae4eb	-0.09125694
5	0xbdc30629	-0.09522659
6	0x3b224eb2	0.0024766144
7	0xbda73e04	-0.081661254
8	0xbdb7eed5	-0.089811005
9	0xbd39be68	-0.0453476
10	0xbc8f772d	-0.017512882
11	0x3e2c324f	0.16816066
12	0xba8e0298	-0.0010834513
13	0xbd702436	-0.058628283
14	0xbdcc9a61	-0.09990383
15	0x3e0b392a	0.13596025
16	0xbdc613a5	-0.09671716
17	0xbd7b2057	-0.06131014
18	0xbd612dfb	-0.05497549
19	0x3e28a60f	0.16469596
20	0x3cd83156	0.026390713
21	0xbd83019d	-0.06396792
22	0xbc70a7d0	-0.014688447
23	0x3daba2f1	0.08380688
24	0xbc42403c	-0.011856135
25	0x3e0b720d	0.13617726
26	0x3dfbd568	0.122965634
27	0x3d22c5b9	0.039739344
28	0xbdc3411d	-0.09533904
29	0x3c24c9a0	0.010057837
30	0xbd9a14c5	-0.07523493
31	0xbdcea7c7	-0.10090595

conv4.weight f4 [64, 32, 3, 3]
0	0x3c6bbf0b	0.01438881
1	0x3cf46e29	0.029837685
2	0x3cef51e6	0.029213857
3	0xbd0e1c68	-0.03469506
4	0x3beb81ed	0.007187119
5	0x3d40f83e	0.047111742
6	0xbd24f68a	-0.04027418
7	0xbd186417	-0.037204828
8	0xbcff660a	-0.031176586
9	0xbdbb55fd	-0.0914726
10	0xbd60e4f2	-0.05490584
11	0xbd5322ae	-0.051546745
12	0xbdecfee3	-0.11572053
13	0x3cf4607e	0.029831167
14	0xbc2621f0	-0.010139927
15	0xbd0117ab	-0.031516712
16	0xbda4e800	-0.08052063
17	0x3b6e5dc6	0.0036371811
18	0x3e08364a	0.1330196
19	0x3da22225	0.07916669
20	0x3d677c71	0.05651516
21	0x3e1bd7cb	0.15219037
22	0x3e04e81c	0.12979168
23	0xbd15d45c	-0.036579475
24	0x3dad3f38	0.08459324
25	0x3e251ec7	0.16125022
26	0x3e7ce543	0.24696831
27	0xbc8bef7a	-0.017081965
28	0x3de54571	0.111948855
29	0x3d020e65	0.03175201
30	0x3da90423	0.08252742
31	0xbd622e66	-0.05522003
32	0x3d9d387b	0.076767884
33	0xbda4f6cc	-0.08054885
34	0xbc8d21f1	-0.017228099
35	0x3d5a186f	0.053245958
36	0x3e452ac4	0.19254595
37	0xbd1c9df7	-0.038236585
38	0x3d4fb0e0	0.05070579
39	0x3db6d129	0.08926613
40	0x3e132718	0.14370382
41	0x3d4ad4b0	0.04951924
42	0xbd85f8dd	-0.065416075
43	0xbe198d30	-0.14995265
44	0x3d67afde	0.056564204
45	0xbca40e84	-0.020026453
46	0xbbce94a0	-0.0063043386
47	0x3cf55fea	0.029952962
48	0x3d4ed8b5	0.050499637
49	0xbd57485c	-0.05255924
50	0xbd70779e	-0.058707826
51	0xbd6d5b5e	-0.057948463
52	0xbd19bec4	-0.037535444
53	0xbcca259c	-0.024676137
54	0x3d10f0cb	0.035385888
55	0xbe199347	-0.14997588
56	0xbd0bc203	-0.03412057
57	0x3dd76f08	0.105192244
58	0x3d814683	0.06312277
59	0x3e0a2ae8	0.1349293
60	0x3cf27576	0.029597025
61	0xbc8d1ba8	-0.017225102
62	0xbc03fc6b	-0.008055787
63	0x3d1c316e	0.038133077
64	0xbcd744f1	-0.026277991
65	0xbd9f3cd7	-0.07775276
66	0x3da0db8c	0.07854375
67	0x3da5bbc0	0.08092451
68	0xbd3eff5b	-0.046630245
69	0x3dc6759b	0.096904
70	0x3d71c9f5	0.05903049
71	0x3d025842	0.03182245
72	0xbc7956f0	-0.015218481
73	0x3c0296bc	0.007970508
74	0x3ace3b00	0.0015734136
75	0x3c2971cc	0.010342073
76	0x3d658dd5	0.056043465
77	0x3d1614e1	0.036641005
78	0xbd4f685c	-0.050636634
79	0x3d1428f9	0.036171887
80	0xbbab1e90	-0.005222149
81	0x3bd54045	0.0065079057
82	0x3e2748e7	0.16336404
83	0x3e74204a	0.23840442
84	0xbd938860	-0.07203746
85	0x3d823f72	0.063597575
86	0xbcd8b86d	-0.026455129
87	0x3de7fe0d	0.11327753
88	0xbdcc3049	-0.09970147
89	0xbd29b9f7	-0.041437116
90	0x3df367b1	0.11885012
91	0x3db5229a	0.0884449
92	0x3d615823	0.055015694
93	0xbe05314a	-0.13007084
94	0xbd2bbcfc	-0.041928276
95	0xbe1a6d8e	-0.15080854
96	0x3ddcefa9	0.10787899
97	0x3c64d98f	0.013967886
98	0x3e001ce1	0.12511016
99	0xbddd9f86	-0.10821442
100	0xbe24ff64	-0.16113049
101	0xbded11e3	-0.11575677
102	0xbd131689	-0.035910163
103	0x3dca9be2	0.098930135
104	0xbbce0ea0	-0.0062883645
105	0xbce31b41	-0.027722957
106	0x3c14af07	0.009074933
107	0x3cc46642	0.023974542
108	0x3d125d71	0.035733644
109	0xbcfb3a3b	-0.030667415
110	0xbb0a5355	-0.0021106799
111	0x3e39ad95	0.18132623
112	0xbdb3c502	-0.08777811
113	0x3c855da9	0.016280012
114	0x3d1a77d0	0.03771192
115	0x3d65ba0d	0.056085635
116	0xbe0b485a	-0.13601819
117	0xbc9f00c4	-0.019409545
118	0xbc990d32	-0.01868305
119	0x3da356a0	0.07975507
120	0xbd545cef	-0.05184644
121	0x3e103c8b	0.14085595
122	0xbde0c360	-0.10974765
123	0x3e1b1bf3	0.1514738
124	0x3d9e27e3	0.077224515
125	0x3c60135c	0.013676491
126	0x3d6a0862	0.0571369
127	0xbd222a2b	-0.039590996
128	0xbcaedb2e	-0.021344747
129	0x3cbcdf3d	0.023055667
130	0xbc4a030e	-0.01232983
131	0xbc4bd9b6	-0.012442043
132	0xbab95f57	-0.0014142793
133	0xbc8acbeb	-0.016942939
134	0xbbb99300	-0.0056632757
135	0x3d70dcf7	0.05880448
136	0x3c1e0ebb	0.009647067
137	0xbd81a9a7	-0.06331187
138	0x3e112f07	0.14178096
139	0x3dd934be	0.10605763
140	0x3e344cd1	0.17607428
141	0x3ddc77b2	0.107650176
142	0x3e3a9d83	0.18224148
143	0x3e15c264	0.14624935
144	0x3c32d804	0.01091576
145	0x3c186644	0.009301726
146	0x3d549bf1	0.05190653
147	0xbd3bceca	-0.045851506
148	0xbd03b6a2	-0.032156594
149	0xbd3fdf4d	-0.046843816
150	0xbc4599ec	-0.012060624
151	0xbd6857a6	-0.056724213
152	0xbd21dcb4	-0.03951712
153	0x3e049cf6	0.12950501
154	0xbd9b5ca8	-0.07586032
155	0x3d91a078	0.07110685
156	0x3e525c47	0.20543014
157	0x3d24beaa	0.040220894
158	0x3d72ead3	0.059305977
159	0xbcb01b80	-0.021497488
160	0xbd4d5059	-0.050125454
161	0x3d2934b1	0.041310016
162	0xbdeb92e1	-0.11502624
163	0xbc5d0062	-0.013488861
164	0x3e12988d	0.14316006
165	0xbbb3788e	-0.0054770177
166	0x3dc70452	0.09717621
167	0x3dcb88c0	0.09938192
168	0xbd3b7551	-0.04576618
169	0xbe0f36f9	-0.13985814
170	0x3d9dbb00	0.07701683
171	0x3d52b0db	0.051438194
172	0x3da7936e	0.08182417
173	0x3d67ed17	0.05662259
174	0xbd231e0a	-0.03982357
175	0x3c107654	0.008817274
176	0x3da390f7	0.07986634
177	0xbd7d0c42	-0.061779268
178	0x3a7b8359	0.00095944625
179	0xbc183799	-0.009290599
180	0xbd647e33	-0.055784415
181	0xbe0ef846	-0.13961896
182	0xbdc6acd8	-0.09700936
183	0xbda6bb8f	-0.08141243
184	0xbd79ba30	-0.060968578
185	0xbdc9c295	-0.09851567
186	0xbe07b943	-0.13254265
187	0x3dd79e86	0.10528283
188	0x3b5bcc89	0.003353866
189	0x3ce2e737	0.027698142
190	0x3d6e9125	0.05824389
191	0x3c18a55d	0.009316769
192	0xbde9d719	-0.1141798
193	0xbd09126a	-0.033464827
194	0x3ca51577	0.020151837
195	0x3bab6bde	0.0052313646
196	0x3c040aeb	0.008059244
197	0xb8e35724	-0.00010840435
198	0xbc1c5a51	-0.0095430175
199	0x3bf8bcdb	0.0075908727
200	0xbd76e034	-0.06027241
201	0x3d782045	0.06057765
202	0x3bcdbc4c	0.0062785503
203	0x3da0f1ca	0.078586176
204	0x3c28ca7e	0.010302184
205	0x3d027baf	0.031856235
206	0xbd5e7391	-0.05430943
207	0xbcd0bc5f	-0.025480447
208	0xbce8afff	-0.028404234
209	0xbbfe4d65	-0.007760691
210	0xbdcac0ff	-0.09900092
211	0x3b231ce7	0.0024889053
212	0xbd9da1f1	-0.076969035
213	0xbdc5ef47	-0.09664779
214	0x3cb5f82d	0.022213066
215	0xbe21052c	-0.15724629
216	0xbcfd6104	-0.03093005
217	0x3e4d2b91	0.2003615
218	0x3d592aef	0.05301946
219	0x3d02e82e	0.031959705
220	0x3dab90d9	0.08377237
221	0x3d8981fb	0.06714245
222	0xbd1842f6	-0.037173234
223	0x3cd06fc8	0.025443926
224	0xbd6b7999	-0.05748901
225	0xbe04890f	-0.12942909
226	0xbde05dd3	-0.109553955
227	0xbd240d11	-0.040051524
228	0xbcf21684	-0.029551752
229	0x3d6eef98	0.058333963
230	0xbd86c061	-0.06579662
231	0xbdbab781	-0.09117032
232	0xbc764547	-0.015031165
233	0xbded877b	-0.115981065
234	0x3de44f51	0.11147941
235	0x3d872400	0.06598663
236	0xbcca8f54	-0.024726547
237	0x3c2190a8	0.009861149
238	0x3e2ebb80	0.17063713
239	0x3d76e0a2	0.06027282
240	0x3dc16bb2	0.094443694
241	0x3d32a3b1	0.04361314
242	0x3dc34d8d	0.09536276
243	0x3e0a8a70	0.13529372
244	0xbcb071b2	-0.02153859
245	0xbddfa2e4	-0.10919741
246	0x3df7a20b	0.12091454
247	0xbd2a0d01	-0.041516308
248	0xbda465d9	-0.080272384
249	0x3dfad0ef	0.12246882
250	0x3d2840ad	0.041077305
251	0xbd3d0698	-0.046148866
252	0x3cdc1665	0.026866147
253	0xbd231590	-0.039815485
254	0xbd6bc7dd	-0.05756365
255	0xbccca17d	-0.024979347

conv4.bias f4 [64]
0	0xbdb751aa	-0.08951123
1	0x3c82ccea	0.015966851
2	0xbd60e3bf	-0.054904696
3	0xbd923316	-0.0713865
4	0xbb913f45	-0.004432591
5	0xbdf06c5d	-0.11739419
6	0x3b8748a7	0.004128534
7	0x3b80124a	0.00390843
8	0xbd6538ec	-0.055962488
9	0x3b973a72	0.0046151215
10	0x3b585e8e	0.0033015343
11	0xbdc4eca2	-0.096154466
12	0xbce27df7	-0.027647955
13	0x3db1fcfc	0.08690831
14	0xbd3e5d80	-0.046475887
15	0x3cc545b9	0.024081098
16	0xbc8c3102	-0.017113212
17	0xbd60b13b	-0.05485652
18	0x3da50eea	0.08059485
19	0xb91d2dd4	-0.00014989759
20	0xbc6fe919	-0.014642977
21	0x3d46289b	0.04837857
22	0x3d340a43	0.0439551
23	0xbd6730c9	-0.05644301
24	0x3d98ae91	0.07455171
25	0xbdeb1ccd	-0.11480103
26	0xbccffa08	-0.025387779
27	0xbda37a5d	-0.07982323
28	0xbaf4fa05	-0.0018690234
29	0xbd668337	-0.05627748
30	0xbc0574c0	-0.008145511
31	0x3ded779d	0.1159508
32	0xbc54ecf1	-0.012995944
33	0xbdc9e6cc	-0.09858474
34	0xbcaf722f	-0.021416752
35	0xbcc86ee2	-0.024466936
36	0xbc9810c5	-0.018562684
37	0xbca496a1	-0.020091357
38	0x3d39b710	0.045340598
39	0xbd90d9e0	-0.07072806
40	0xbd56ab10	-0.05240923
41	0x3d5cc14c	0.05389528
42	0x3cbe87ec	0.023258172
43	0xbc8422fc	-0.016129963
44	0x3d8047f1	0.06263722
45	0x3bec8779	0.007218298
46	0xbd03bb21	-0.032160882
47	0x3cf4b5cb	0.029871842
48	0xbd8093cb	-0.06278189
49	0xbd66fd38	-0.056393832
50	0xbb5bb6c7	-0.0033525692
51	0x3c6c17e3	0.014409992
52	0xbd1d06a8	-0.038336426
53	0xbd3af3df	-0.04564273
54	0xbd7b43b6	-0.06134387
55	0xbceba1b6	-0.028763633
56	0xbdad6c0c	-0.08467874
57	0x3d859808	0.06523138
58	0x3d0ed7cb	0.034873765
59	0xbd8dee4f	-0.069302194
60	0xbc8c37eb	-0.017116508
61	0xbd136e63	-0.035993945
62	0xbd5dcdd0	-0.054151356
63	0xbdd395a9	-0.1033128

fc1.weight f4 [100, 1024]
0	0x3c317b10	0.010832563
1	0xbbde0cd0	-0.0067764297
2	0x3c6206e4	0.013795588
3	0x3cfe0342	0.031007413
4	0xbccbe708	-0.024890438
5	0x3ca51a08	0.020154014
6	0xbbff2ed0	-0.007787563
7	0x3c209158	0.009800278
8	0x3ce47d90	0.027891904
9	0x3c0112c4	0.007878009
10	0xbc1fde34	-0.009757567
11	0xbc10f74c	-0.008848023
12	0xbc3bdee4	-0.0114667155
13	0x3cb83056	0.022483986
14	0xbbec41c8	-0.00720999
15	0xbb69cf50	-0.0035676546
16	0xbc9883bd	-0.018617505
17	0xbd1d2cfa	-0.03837297
18	0xbd18008d	-0.0371099
19	0x3b8254a8	0.003977377
20	0x3a3411d3	0.0006869111
21	0xbd21ce5d	-0.039503444
22	0x3c698b67	0.0142544275
23	0xbcafa7a8	-0.02144225
24	0x3cac2467	0.021013452
25	0xbc95c238	-0.018281087
26	0xbd2a525b	-0.041582447
27	0x3c61b37d	0.0137757035
28	0xb9027756	-0.00012442222
29	0xbc33e864	-0.010980699
30	0xbd015936	-0.03157922
31	0x3c813609	0.015772836
32	0x3c0c9de0	0.008582562
33	0x3aad84e0	0.0013238452
34	0x3c7b872c	0.015352052
35	0xbcb40ba4	-0.021978207
36	0xbc652f4c	-0.013988327
37	0xbca34661	-0.01993102
38	0xbc9335b8	-0.017969951
39	0xbccdb9ca	-0.025113005
40	0x3ca3f8fc	0.020016186
41	0xbc8029dc	-0.01564496
42	0xbc9ad32e	-0.018899526
43	0xbc9c4e60	-0.01908034
44	0xbc6bff1b	-0.014404084
45	0x3cb08a30	0.021550268
46	0x3be457f0	0.006968491
47	0x3c36edec	0.011165123
48	0xbc2ec3bd	-0.010666785
49	0xbce50bd8	-0.02795975
50	0xbd04ffd4	-0.03247054
51	0x3cbc04dd	0.022951538
52	0xbc7a5ff2	-0.015281664
53	0xbc97beeb	-0.018523654
54	0xbcb4232b	-0.021989426
55	0xbc970058	-0.018432781
56	0x3cef373d	0.029201144
57	0xbbcc1235	-0.0062277564
58	0xbc8a550f	-0.016886262
59	0xbc9d1df2	-0.019179318
60	0x3c3ce429	0.011529007
61	0x3bfcbee2	0.0077131847
62	0xbc1e64b3	-0.009667563
63	0x3c7f4b02	0.015581848
64	0x3b8b1b94	0.004245231
65	0x3bb55bf5	0.005534644
66	0x3c3e5d70	0.011618957
67	0xbca2b50c	-0.01986172
68	0x3bb0876d	0.0053872378
69	0x3b36623d	0.002782955
70	0xbcac099f	-0.021000681
71	0x3bfe77cd	0.007765746
72	0xba41a4cc	-0.00073869224
73	0x39b9cd62	0.00035438972
74	0xb6ce5057	-6.148631e-06
75	0x3ce61957	0.028088255
76	0xbd010e13	-0.031507563
77	0x3c3ac3ed	0.011399251
78	0x3c62224a	0.01380212
79	0xbc991671	-0.018687459
80	0x3c36275a	0.011117781
81	0xbd06b43a	-0.03288672
82	0x3c5834d1	0.013196186
83	0xbbf98078	-0.0076141916
84	0xbd26a1fd	-0.040681828
85	0x3c4ad47d	0.012379763
86	0x3c908d93	0.017645633
87	0xbd08979e	-0.03334772
88	0xbcab6e17	-0.020926518
89	0xbcc66a5a	-0.024220634
90	0x3c90b21f	0.01766306
91	0x3c9ed85b	0.019390276
92	0x3a827a9c	0.0009954753
93	0x3c3c23ab	0.011483113
94	0x3b7501f1	0.003738519
95	0xbc970dbd	-0.018439168
96	0xbcec49ad	-0.028843725
97	0x3b3317c4	0.0027327398
98	0x3a9a55ed	0.0011774875
99	0x3c53deb6	0.012931516
100	0xbd052ef0	-0.032515466
101	0xbaaff71f	-0.0013425088
102	0xbc7be612	-0.015374677
103	0xbcc95866	-0.024578284
104	0xbc39d6e3	-0.011342737
105	0x3cbfe337	0.023423774
106	0x3b5b9213	0.0033503815
107	0x3c92e3d0	0.017930895
108	0x3930a7ac	0.0001684713
109	0x3c7495dc	0.014928307
110	0xbd10a134	-0.035309985
111	0x3c0b1673	0.008489239
112	0x3c7f98a6	0.015600359
113	0xbce7d232	-0.028298471
114	0xbcd4bf17	-0.025970025
115	0xbbe34f58	-0.0069369487
116	0x3be5c959	0.007012528
117	0x3ac834fe	0.0015274582
118	0xbcae76d5	-0.021296898
119	0xbcee9f2a	-0.02912863
120	0xbc861479	-0.016367184
121	0xbcaf903b	-0.02143108
122	0x3c82b6ff	0.0159564
123	0x3cd18572	0.025576327
124	0x3c332876	0.01093494
125	0xbbd27b4e	-0.0064233905
126	0x3b8756e9	0.0041302335
127	0xbc7ff671	-0.015622721
128	0xbce49698	-0.02790384
129	0x3b97c0a0	0.004631117
130	0xbc5f9da0	-0.013648421
131	0xbb48c700	-0.0030636191
132	0xbccec044	-0.025238164
133	0xbc56eff4	-0.013118733
134	0x3c289ef8	0.010291807
135	0xba0d2280	-0.0005383864
136	0x3c27cbe8	0.010241486
137	0xbc49eefc	-0.012325045
138	0xbc837500	-0.016047
139	0xbcd3d976	-0.02586053
140	0x3cdf7912	0.02727941
141	0xbcacad1a	-0.021078635
142	0x3cc51d20	0.02406174
143	0x3ce0e5f4	0.0274534
144	0xbd047546	-0.032338403
145	0xbcd5e486	-0.026109945
146	0x3bfa3c05	0.0076365494
147	0x3c004aa3	0.007830295
148	0x3b0c92ed	0.002144988
149	0x3c0dabe6	0.008646941
150	0xbbaf201f	-0.0053444053
151	0xbc8bc375	-0.017060975
152	0xbc3911bf	-0.011295735
153	0xbcd776f4	-0.026301838
154	0x3b8ba2cd	0.0042613507
155	0xbbba7ac6	-0.0056909053
156	0x3c31110f	0.01080729
157	0x3c5f3c3c	0.013625201
158	0x3c000f0a	0.007816086
159	0xbceac7e7	-0.028659774
160	0xbc1f645b	-0.009728516
161	0x3cdd6a1b	0.027028134
162	0x3c109f16	0.008826992
163	0xbc0397b2	-0.008031772
164	0xbc025e7e	-0.007957099
165	0xbcc631c2	-0.024193648
166	0x3ccb4388	0.024812475
167	0xbc5d38d0	-0.013502315
168	0xbcbbb0d8	-0.022911474
169	0x3c8fae84	0.01753927
170	0xbcb377c6	-0.021907698
171	0xbcf397d5	-0.029735485
172	0x3cd53ed2	0.026030932
173	0xbb4effc8	-0.0031585563
174	0xbc1c9518	-0.009557031
175	0xbc952c8c	-0.018209718
176	0xbd04552b	-0.032307785
177	0xbbedf8a5	-0.0072623068
178	0xbcefbed0	-0.029265791
179	0x3ca0bc12	0.019620929
180	0x3c02dea8	0.007987656
181	0x3cba16e6	0.022715997
182	0xbc22ce1c	-0.009936836
183	0xbbbb4068	-0.005714465
184	0x3b1be92f	0.0023790111
185	0x3bd73ef8	0.0065687858
186	0x3ca47a1c	0.020077758
187	0x3c000040	0.00781256
188	0xbca0123b	-0.019539943
189	0xbba3827e	-0.004989921
190	0xbc0fc100	-0.008774042
191	0x3cb81a04	0.022473343
192	0xbc7e4b4e	-0.015520884
193	0xbc385184	-0.011249904
194	0x3be95c68	0.0071216114
195	0x3c60e974	0.013727535
196	0x3c332911	0.010935084
197	0xbc820141	-0.015869739
198	0xbc6d2d30	-0.014476106
199	0xba84d900	-0.0010135472
200	0xbb47b45c	-0.0030472493
201	0x3b3b6657	0.0028594935
202	0x3c9862be	0.018601771
203	0x3bc15c40	0.0059008896
204	0xbd16417f	-0.036683556
205	0xbb955caa	-0.0045581656
206	0x3ca7e9d5	0.020497242
207	0xbcb90d62	-0.02258939
208	0xbd1f280d	-0.038856555
209	0x3c4cf088	0.012508519
210	0xbbd4d525	-0.0064951354
211	0xbcf9436f	-0.030427663
212	0xbd00b1c3	-0.031419527
213	0xbcdaaa55	-0.026692549
214	0x3b8fc4b3	0.004387462
215	0xbc5cb9eb	-0.013472061
216	0xbc93ef30	-0.01805839
217	0x3c6ea941	0.01456672
218	0xbc8adb96	-0.01695041
219	0x3bcf1e42	0.0063207457
220	0xb9c9c8db	-0.00038487357
221	0x3c560458	0.013062559
222	0xbc6baab1	-0.014383958
223	0x3b32e0de	0.0027294676
224	0x3ac88fdc	0.0015301662
225	0xbc68efa4	-0.014217291
226	0xbbed18f2	-0.0072356397
227	0x3c9f4d5e	0.019446071
228	0x3c2cb041	0.010540069
229	0xbbff07fd	-0.0077829347
230	0xbcdc8ce7	-0.026922656
231	0xba906efe	-0.0011019406
232	0x3ba3ae5b	0.00499515
233	0xbcbed5e5	-0.023295352
234	0xbae1062a	-0.0017167975
235	0x3a9ace25	0.0011810703
236	0xbc28d8c1	-0.010305584
237	0xbd0d3ee3	-0.0344838
238	0x3b37ef52	0.002806623
239	0xbce7465d	-0.028231794
240	0xbcf59c3a	-0.029981721
241	0xbc4a5777	-0.012349955
242	0x3c67f34d	0.0141571285
243	0xbc4256cc	-0.011861514
244	0x3ad1c307	0.0016003557
245	0x3c9a140b	0.018808385
246	0xbcafb967	-0.021450711
247	0xbd07a821	-0.033119325
248	0xbc7d8cf6	-0.015475502
249	0xbcb21ed1	-0.02174321
250	0x3b2beae4	0.0026232535
251	0x3a5f3d79	0.0008515935
252	0x3c3126ac	0.010812443
253	0xbc8b2e4d	-0.016989851
254	0xbcf80fcc	-0.03028097
255	0xbc32fd9a	-0.010924721

fc1.bias f4 [100]
0	0x3b016096	0.0019741408
1	0xb9f9fc44	-0.00047680933
2	0xbd7110d7	-0.05885395
3	0xbd2d69a9	-0.042337094
4	0x3e392915	0.18082078
5	0x3e039de2	0.12853196
6	0xbc81c314	-0.01584009
7	0x3e211050	0.15728879
8	0x3d89b0b5	0.06723157
9	0x3e2fb1a9	0.17157616
10	0x3cb480e3	0.022034114
11	0x3e36429d	0.17798848
12	0xbd007069	-0.031357203
13	0xbd032df5	-0.03202625
14	0x3d806c50	0.06270659
15	0xbd0d50cd	-0.034500886
16	0x3df72fc0	0.120696545
17	0x3cf2c95c	0.029637031
18	0x3defb257	0.117039375
19	0xbccb4624	-0.02481372
20	0x3e12cc43	0.14335732
21	0xbc02cb9e	-0.007983116
22	0x3e01eafd	0.12687297
23	0xbd7bfd2f	-0.06152075
24	0xbcd810ed	-0.026375258
25	0xbd69e257	-0.05710062
26	0x3e0d101a	0.13775674
27	0x3e251564	0.16121441
28	0xbda88a7c	-0.08229539
29	0x3a8349e5	0.0010016529
30	0x3e100cb5	0.14067347
31	0xbc0420e0	-0.008064479
32	0xbc994dd2	-0.018713865
33	0x3e2d7f93	0.16943197
34	0x3e3be416	0.18348727
35	0x3e085922	0.13315251
36	0xbd5044da	-0.050846912
37	0x3b5352a8	0.0032245312
38	0xbd85c349	-0.06531388
39	0x3e22058d	0.1582243
40	0xbcba605c	-0.022751026
41	0x3e34d797	0.17660366
42	0xbd1187b2	-0.0355298
43	0xbd4316dd	-0.047629226
44	0xbd142225	-0.036165375
45	0x3e142c98	0.14470136
46	0xbd24146e	-0.040058546
47	0xbca5d34f	-0.020242361
48	0x3e164051	0.14672972
49	0xbcdd17e1	-0.026988925
50	0x3e24a8cf	0.1608002
51	0x3e18158e	0.14851972
52	0xbccffff2	-0.025390599
53	0x3c6a0f2a	0.014285842
54	0xbc8fa193	-0.0175331
55	0xbc7bafc7	-0.015361733
56	0xbd80c8fd	-0.062883355
57	0xbcbc213c	-0.022965066
58	0x3d562a15	0.052286226
59	0x3e35c1e9	0.17749752
60	0x3c8c353d	0.01711523
61	0xbcff387b	-0.031154862
62	0x3e193069	0.14959873
63	0xbca65c88	-0.020307794
64	0xbd4937cb	-0.049125474
65	0xbcd538b9	-0.026028024
66	0x3cdee660	0.02720946
67	0x3a7a415a	0.00095464813
68	0x3e1990f1	0.14996697
69	0xbcbe92b1	-0.023263307
70	0xba972ac5	-0.0011533132
71	0x3e0895fe	0.13338467
72	0x3e20e012	0.15710476
73	0xbd252a38	-0.040323466
74	0xbd28b44d	-0.041187573
75	0xbca7c29c	-0.02047854
76	0x3e1e3f40	0.15453815
77	0x3e21f064	0.15814358
78	0xbcb4c30a	-0.022065658
79	0xbc52c67c	-0.012864705
80	0xbce5f132	-0.028069112
81	0x3e0aecdb	0.13566916
82	0xbd138e14	-0.036024168
83	0x3e14dbf6	0.14537033
84	0xbdb35155	-0.08755747
85	0x3e1789bd	0.14798637
86	0xbd94d859	-0.072678275
87	0xbd6bd802	-0.057579048
88	0xbd9f288b	-0.07771405
89	0xbd32dc57	-0.043667164
90	0x3e17fbb3	0.1484211
91	0x3e2f98c5	0.1714812
92	0x3ceb9e5c	0.028762035
93	0xbca7dadc	-0.020490102
94	0x3e3d2134	0.18469697
95	0xbd483372	-0.048877187
96	0xbcde46ef	-0.027133433
97	0xbb88da77	-0.0041764337
98	0xbd06ea0b	-0.032938045
99	0xbb56d374	-0.0032779844

fc2.weight f4 [2, 100]
0	0x3c74a56d	0.014932019
1	0xbe0dad86	-0.13835725
2	0xbe572f39	-0.21014108
3	0xbdfd5ea1	-0.12371565
4	0x3ea5de4a	0.32396156
5	0x3eab75b8	0.3348825
6	0x3d850491	0.064950116
7	0x3e876d0e	0.2645039
8	0xbf172e69	-0.5905519
9	0x3eb84b19	0.35994795
10	0xbedf5275	-0.43617597
11	0x3e1f89d9	0.15579928
12	0x3da20529	0.079111405
13	0xbdb7cbe7	-0.08974438
14	0x3f1c47cd	0.6104706
15	0x3be1c7ca	0.006890272
16	0x3e3244e9	0.174091
17	0x3f4e1025	0.80493385
18	0x3efc3f1e	0.49266905
19	0xbbcea863	-0.0063066944
20	0x3e01bdd6	0.12670073
21	0x3cafdcbe	0.021467563
22	0x3ef044ad	0.46927395
23	0xbc97fde9	-0.018553691
24	0x3ec3ecb1	0.3826652
25	0xbe4a1e92	-0.19738224
26	0x3e2c9ffb	0.16857903
27	0x3e381038	0.17974937
28	0xbdf830ed	-0.12118707
29	0xbd658bdb	-0.05604158
30	0x3ed1b23b	0.40956292
31	0x3c393082	0.011303069
32	0x3c62200c	0.013801586
33	0x3eaf67d9	0.34258917
34	0x3e9ecfe3	0.3101798
35	0x3eaf131e	0.34194273
36	0xbe9ff416	-0.3124091
37	0xbf2701dd	-0.6523722
38	0xbe3109ad	-0.17288847
39	0x3ea69646	0.32536525
40	0x3d0f7fa5	0.03503384
41	0x3e9d4586	0.30717105
42	0xbd8fd147	-0.07022338
43	0xbebdde6b	-0.37083754
44	0x3c0ebb4c	0.008711647
45	0x3e53da0c	0.20688647
46	0xbeca1d93	-0.39475688
47	0x3e94d796	0.2907073
48	0x3e648bcd	0.22318955
49	0xbdb1f740	-0.08689737
50	0x3ea2bde9	0.31785515
51	0x3e1bfa93	0.15232305
52	0xbb7494aa	-0.0037320056
53	0xbef0ecd5	-0.47055689
54	0x3affb32e	0.0019508356
55	0xbe898aa5	-0.2686359
56	0xbe24cb4f	-0.16093181
57	0xbe4dbca2	-0.20091489
58	0x3f1065f5	0.56405574
59	0x3e523cb2	0.20530966
60	0x3ec55b91	0.38546422
61	0x396d6062	0.00022637987
62	0x3e88d2ce	0.2672333
63	0x3c703f78	0.01466357
64	0x3d88faef	0.06688487
65	0x3c20839b	0.009797002
66	0xbed72989	-0.42023876
67	0xbd8b1657	-0.0679137
68	0x3ea31244	0.31849873
69	0xbd1f8778	-0.038947552
70	0xbd1d7e15	-0.03845032
71	0x3e663f16	0.22485003
72	0x3e67455c	0.22585052
73	0xbd4e48f8	-0.050362557
74	0xbe959ea0	-0.29222584
75	0x3be20f14	0.00689877
76	0x3e3fcdf3	0.18730907
77	0x3ec75563	0.38932332
78	0xbc6e31cb	-0.014538239
79	0xbc96af07	-0.018394006
80	0xbe83ef15	-0.25768343
81	0x3dfd484e	0.12367307
82	0xbf2441a3	-0.64162654
83	0x3eb94045	0.36181846
84	0xbed6eb2a	-0.4197629
85	0x3e8154cb	0.25260004
86	0xbe3d8f2b	-0.18511645
87	0xbe5c76f1	-0.21529748
88	0xbe4b6041	-0.19860937
89	0xbf215cc4	-0.63032174
90	0x3ecc6d45	0.39927116
91	0x3e8a1a56	0.26973218
92	0x3f396338	0.7241702
93	0x3f2f459f	0.6846561
94	0x3df62be1	0.12020088
95	0xbeab47d9	-0.33453253
96	0xbd957fc0	-0.07299757
97	0x3c35041d	0.011048344
98	0xbea23f37	-0.31688854
99	0x3ea0f09d	0.31433573
100	0x3d329150	0.043595612
101	0x3d964465	0.07337264
102	0x3eb495ed	0.35270634
103	0x3e57164e	0.21004602
104	0xbe9f4ead	-0.31114712
105	0xbe88a6e0	-0.26689816
106	0x3c50ca18	0.012743495
107	0xbdeae451	-0.11469329
108	0x3f066587	0.5249867
109	0xbe938c83	-0.2881814
110	0x3ec83d08	0.39109063
111	0xbe85d587	-0.2613947
112	0xbd422fdb	-0.04740892
113	0x3d551d33	0.0520298
114	0xbf21b5e2	-0.63168156
115	0xbd70dd33	-0.058804702
116	0xbe50d023	-0.20391898
117	0xbf479abd	-0.77970487
118	0xbedab9b6	-0.4271981
119	0x3da27801	0.07933045
120	0xbe69b23d	-0.22821899
121	0x3d0c6bf0	0.034282625
122	0xbed863aa	-0.42263538
123	0xbc8c914d	-0.017159129
124	0xbe8c5ce5	-0.27414623
125	0x3e009eca	0.12560573
126	0xbe7c004f	-0.24609493
127	0xbea151d9	-0.31507757
128	0x3e52e503	0.20595174
129	0x3d4b2dc1	0.04960418
130	0xbeb4e8d0	-0.35333872
131	0x3d5e568a	0.05428175
132	0x3daea9e6	0.08528499
133	0xbe719a1e	-0.23593947
134	0xbe69aa90	-0.2281897
135	0xbedeef63	-0.43542013
136	0x3eb94058	0.36181903
137	0x3f2de6b7	0.6793017
138	0x3e896394	0.26833785
139	0xbeaefa51	-0.3417535
140	0x3da045f8	0.078258455
141	0xbe8a457f	-0.27006146
142	0x3d69b435	0.057056624
143	0x3ef0cd87	0.47031805
144	0x3d8fc6b1	0.07020319
145	0xbea39ceb	-0.31955656
146	0x3e7f6af5	0.24943145
147	0xbea7f6e5	-0.32805553
148	0xbe96bda5	-0.29441562
149	0x3da3bea0	0.07995343
150	0xbeaa8606	-0.33305377
151	0xbe92fb23	-0.28707227
152	0x3b4e72c7	0.0031501518
153	0x3ef339d2	0.4750505
154	0x3c8a2bfa	0.016866673
155	0x3e85620a	0.2605136
156	0x3e4912c2	0.19636062
157	0x3e850f65	0.25988308
158	0xbf1ba3e5	-0.6079696
159	0xbe4ca407	-0.19984446
160	0xbebbb584	-0.36661923
161	0x3d5bb250	0.05363685
162	0xbe6e5daa	-0.23277918
163	0xbd68a614	-0.05679901
164	0xbd3661a4	-0.04452671
165	0x3c696bdd	0.014246908
166	0x3f0a2595	0.53963596
167	0x3d55c011	0.052185122
168	0xbe6f23c4	-0.23353487
169	0xbda75621	-0.08170725
170	0x3a95e631	0.00114364
171	0xbe41a28a	-0.1890966
172	0xbe8307ac	-0.2559179
173	0x3d37c57d	0.044866074
174	0x3e2ac839	0.16677941
175	0x3c2c9e61	0.010535807
176	0xbe30bde7	-0.17259942
177	0xbee9bb93	-0.4565092
178	0x3d9c363c	0.07627532
179	0x3d0d5b7d	0.03451108
180	0x3e655474	0.22395498
181	0xbe575b56	-0.21030936
182	0x3f1af8c5	0.6053584
183	0xbeebbf07	-0.4604418
184	0x3f052f0d	0.5202492
185	0xbe101cf5	-0.14073546
186	0x3e53cb97	0.20683132
187	0x3e45c751	0.19314314
188	0x3e41d961	0.1893058
189	0x3f17f54c	0.5935867
190	0xbeb1b63b	-0.34709343
191	0xbe16c00a	-0.14721695
192	0xbf32e08d	-0.6987389
193	0xbf467460	-0.77521324
194	0xbe6ee1b2	-0.23328283
195	0x3eac395e	0.33637518
196	0xbd1c6e27	-0.038190987
197	0x3daedb9c	0.08537981
198	0x3e8c5a78	0.27412772
199	0xbef7529e	-0.4830522

fc2.bias f4 [2]
0	0xbdabf4fb	-0.08396336
1	0x3e10f4f9	0.1415595
